2023-12-16 13:22:45,168 - train - INFO - RawNet(
  (sinc_filter): SincConv_fast()
  (res_blocks1): Sequential(
    (0): ResBlock(
      (bn1): BatchNorm1d(20, eps=1e-05, momentum=0.1, affine=True, track_running_stats=True)
      (l_relu): LeakyReLU(negative_slope=0.01)
      (conv1): Conv1d(20, 20, kernel_size=(3,), stride=(1,), padding=(1,))
      (bn2): BatchNorm1d(20, eps=1e-05, momentum=0.1, affine=True, track_running_stats=True)
      (conv2): Conv1d(20, 20, kernel_size=(3,), stride=(1,), padding=(1,))
      (sample_conv): Conv1d(20, 20, kernel_size=(1,), stride=(1,))
      (max_pool): MaxPool1d(kernel_size=3, stride=3, padding=0, dilation=1, ceil_mode=False)
      (FMS): FMS(
        (avgpool): AdaptiveAvgPool1d(output_size=1)
        (fc): Linear(in_features=20, out_features=20, bias=True)
      )
    )
    (1): ResBlock(
      (bn1): BatchNorm1d(20, eps=1e-05, momentum=0.1, affine=True, track_running_stats=True)
      (l_relu): LeakyReLU(negative_slope=0.01)
      (conv1): Conv1d(20, 20, kernel_size=(3,), stride=(1,), padding=(1,))
      (bn2): BatchNorm1d(20, eps=1e-05, momentum=0.1, affine=True, track_running_stats=True)
      (conv2): Conv1d(20, 20, kernel_size=(3,), stride=(1,), padding=(1,))
      (max_pool): MaxPool1d(kernel_size=3, stride=3, padding=0, dilation=1, ceil_mode=False)
      (FMS): FMS(
        (avgpool): AdaptiveAvgPool1d(output_size=1)
        (fc): Linear(in_features=20, out_features=20, bias=True)
      )
    )
  )
  (res_blocks2): Sequential(
    (0): ResBlock(
      (bn1): BatchNorm1d(20, eps=1e-05, momentum=0.1, affine=True, track_running_stats=True)
      (l_relu): LeakyReLU(negative_slope=0.01)
      (conv1): Conv1d(20, 128, kernel_size=(3,), stride=(1,), padding=(1,))
      (bn2): BatchNorm1d(128, eps=1e-05, momentum=0.1, affine=True, track_running_stats=True)
      (conv2): Conv1d(128, 128, kernel_size=(3,), stride=(1,), padding=(1,))
      (sample_conv): Conv1d(20, 128, kernel_size=(1,), stride=(1,))
      (max_pool): MaxPool1d(kernel_size=3, stride=3, padding=0, dilation=1, ceil_mode=False)
      (FMS): FMS(
        (avgpool): AdaptiveAvgPool1d(output_size=1)
        (fc): Linear(in_features=128, out_features=128, bias=True)
      )
    )
    (1): ResBlock(
      (bn1): BatchNorm1d(128, eps=1e-05, momentum=0.1, affine=True, track_running_stats=True)
      (l_relu): LeakyReLU(negative_slope=0.01)
      (conv1): Conv1d(128, 128, kernel_size=(3,), stride=(1,), padding=(1,))
      (bn2): BatchNorm1d(128, eps=1e-05, momentum=0.1, affine=True, track_running_stats=True)
      (conv2): Conv1d(128, 128, kernel_size=(3,), stride=(1,), padding=(1,))
      (max_pool): MaxPool1d(kernel_size=3, stride=3, padding=0, dilation=1, ceil_mode=False)
      (FMS): FMS(
        (avgpool): AdaptiveAvgPool1d(output_size=1)
        (fc): Linear(in_features=128, out_features=128, bias=True)
      )
    )
    (2): ResBlock(
      (bn1): BatchNorm1d(128, eps=1e-05, momentum=0.1, affine=True, track_running_stats=True)
      (l_relu): LeakyReLU(negative_slope=0.01)
      (conv1): Conv1d(128, 128, kernel_size=(3,), stride=(1,), padding=(1,))
      (bn2): BatchNorm1d(128, eps=1e-05, momentum=0.1, affine=True, track_running_stats=True)
      (conv2): Conv1d(128, 128, kernel_size=(3,), stride=(1,), padding=(1,))
      (max_pool): MaxPool1d(kernel_size=3, stride=3, padding=0, dilation=1, ceil_mode=False)
      (FMS): FMS(
        (avgpool): AdaptiveAvgPool1d(output_size=1)
        (fc): Linear(in_features=128, out_features=128, bias=True)
      )
    )
    (3): ResBlock(
      (bn1): BatchNorm1d(128, eps=1e-05, momentum=0.1, affine=True, track_running_stats=True)
      (l_relu): LeakyReLU(negative_slope=0.01)
      (conv1): Conv1d(128, 128, kernel_size=(3,), stride=(1,), padding=(1,))
      (bn2): BatchNorm1d(128, eps=1e-05, momentum=0.1, affine=True, track_running_stats=True)
      (conv2): Conv1d(128, 128, kernel_size=(3,), stride=(1,), padding=(1,))
      (max_pool): MaxPool1d(kernel_size=3, stride=3, padding=0, dilation=1, ceil_mode=False)
      (FMS): FMS(
        (avgpool): AdaptiveAvgPool1d(output_size=1)
        (fc): Linear(in_features=128, out_features=128, bias=True)
      )
    )
  )
  (gru): GRU(128, 1024, num_layers=3)
  (fc1): Linear(in_features=1024, out_features=1024, bias=True)
  (fc2): Linear(in_features=1024, out_features=2, bias=True)
  (bn1): BatchNorm1d(20, eps=1e-05, momentum=0.1, affine=True, track_running_stats=True)
  (bn2): BatchNorm1d(128, eps=1e-05, momentum=0.1, affine=True, track_running_stats=True)
  (maxpool): MaxPool1d(kernel_size=3, stride=3, padding=0, dilation=1, ceil_mode=False)
)
Trainable parameters: 17621870
2023-12-16 13:43:38,182 - trainer - INFO -     epoch          : 1
2023-12-16 13:43:38,182 - trainer - INFO -     loss           : 0.3236745341867209
2023-12-16 13:43:38,183 - trainer - INFO -     eer            : 0.2537837456368266
…
